models/stn_28x28_noshift.pt (torch, 118015 bytes, 16 tensors)

weight f4 [10, 1, 5, 5]
0	0xbe25e34d	-0.1619999
1	0x3e223893	0.15841894
2	0xbe01bbd9	-0.12669314
3	0xbe148527	-0.14503919
4	0x3cf1e6a7	0.029528929
5	0x3ae797b6	0.0017669115
6	0xbdeef71a	-0.11668225
7	0x3d17a42b	0.037021797
8	0xbd335ee6	-0.043791674
9	0xbda12623	-0.07868602
10	0xbe30dde0	-0.17272139
11	0xbda2bdc7	-0.079463534
12	0xbe41fc08	-0.18943799
13	0xbd9080fc	-0.07055852
14	0x3e36fdf0	0.17870307
15	0x3c0e4f8d	0.008685959
16	0xbe446888	-0.191805
17	0x3dbf47eb	0.09339889
18	0xbdb85061	-0.08999706
19	0xbe38efc8	-0.1806022
20	0x3e011ea4	0.12609345
21	0x3c01d226	0.007923638
22	0x3e0622a2	0.13099149
23	0x3e39b306	0.18134698
24	0xbdbe804b	-0.09301814
25	0xbf01e44c	-0.5073898
26	0xbe89b717	-0.268975
27	0x3e97d844	0.29657185
28	0xbce7ae28	-0.028281286
29	0xbdbf26c6	-0.09333567
30	0xbea9acea	-0.33139735
31	0xbe016fae	-0.12640259
32	0x3f1a7725	0.6033805
33	0x3e9a8e38	0.3018663
34	0x3b68bb84	0.0035512159
35	0xbbdc185e	-0.006716772
36	0x3ec5d565	0.3863937
37	0x3eb86f25	0.36022297
38	0x3e7c2061	0.24621727
39	0xbe27aa3f	-0.16373537
40	0xbebacd24	-0.36484635
41	0x3d4d56f3	0.05013175
42	0x3ea4a3fa	0.32156354
43	0xbe10c4e6	-0.14137611
44	0xbe4913e3	-0.19636492
45	0x3d6dae70	0.058027685
46	0xb9cbb0f3	-0.00038851015
47	0x3e66d037	0.22540365
48	0xbe90b91a	-0.2826622
49	0xbe686f42	-0.22698691
50	0xbe9fbe6a	-0.31199962
51	0x3e594f59	0.21221675
52	0x3ec64a70	0.38728666
53	0xbdc8b022	-0.0979922
54	0xbea19b0e	-0.3156361
55	0xbcec8e19	-0.028876351
56	0x3eec76c1	0.46184352
57	0xbd911d2b	-0.070856415
58	0xbe038e10	-0.12847161
59	0xbe28e12f	-0.1649215
60	0x3eb7eb92	0.35921913
61	0x3ec4197d	0.38300696
62	0xbe887740	-0.2665348
63	0xbf00141a	-0.5003067
64	0xbdbad82b	-0.09123262
65	0x3f3aebca	0.73016036
66	0x3ef97017	0.4871833
67	0xbee957cc	-0.45574796
68	0xbf170468	-0.589911
69	0xbe966ebb	-0.29381356
70	0x3f1f848d	0.6231163
71	0x3efa1eb1	0.4885154
72	0x3e160b14	0.14652663
73	0xbe545429	-0.2073523
74	0xbc80de95	-0.015731135
75	0x3d3cc75b	0.046088558
76	0x3edfab8d	0.4368557
77	0x3e42819c	0.18994755
78	0x3ef884f2	0.4853893
79	0x3ea20fac	0.31652582
80	0x3de5942b	0.112099014
81	0x3f1e1958	0.6175742
82	0x3f051056	0.5197805
83	0x3e1c6e02	0.1527634
84	0x3ea14353	0.31496677
85	0x3e973eb0	0.29540014
86	0x3ca1b69c	0.019740395
87	0xbecbb7f8	-0.39788795
88	0xbf01029f	-0.50394624
89	0xbe9d640a	-0.30740386
90	0x3d90e418	0.070747554
91	0xbd2ce9ea	-0.042215265
92	0xbec5da7a	-0.38643247
93	0xbec369c6	-0.38166636
94	0xbec207b6	-0.37896508
95	0x3d9721af	0.073794715
96	0xbe3f2a1d	-0.18668409
97	0x3d96d0ca	0.07364042
98	0xbe102e9f	-0.14080285
99	0xbe1a9091	-0.1509421
100	0xbd780f15	-0.06056126
101	0xbe3e1ba2	-0.18565229
102	0xbe616550	-0.22011304
103	0xbe8c7ddd	-0.27439776
104	0xbe0c1b57	-0.13682304
105	0xbeb4bafa	-0.35298902
106	0xbee68db2	-0.4502998
107	0xbe9ff065	-0.31238094
108	0xbe8403d4	-0.2578417
109	0xbe5b9e82	-0.21447185
110	0xbefe5675	-0.49675336
111	0xbf11a42e	-0.56891143
112	0xbbdc46ef	-0.006722323
113	0x3dfd9c17	0.123832874
114	0x3e8ccc34	0.27499545
115	0x3dd5dafb	0.10442158
116	0xbd9ac1e9	-0.07556517
117	0x3f1e02bb	0.61722916
118	0x3f36e853	0.7144825
119	0x3ed28b74	0.4112202
120	0xbbdea9ff	-0.0067951675
121	0x3ef370e4	0.47547066
122	0x3edc1b49	0.42989567
123	0x3ec2db50	0.38057947
124	0xbe18e349	-0.14930452
125	0x3c4c7ab4	0.012480427
126	0x3e439bba	0.19102374
127	0x3dcd7be8	0.10033399
128	0x3b2c2f18	0.0026273187
129	0xbe6489a3	-0.22318129
130	0x3e02c81b	0.12771647
131	0x3e8c56ce	0.27409977
132	0x3f06bd4a	0.5263258
133	0x3d399fe0	0.045318484
134	0x3da778f2	0.08177365
135	0x3f23a3e5	0.6392196
136	0x3f556b5c	0.8336694
137	0x3ee81987	0.45331976
138	0xbda317eb	-0.07963546
139	0xbe86a6d0	-0.26299143
140	0x3f27fc26	0.65619123
141	0x3f156ffa	0.5837399
142	0xbda3696a	-0.079790905
143	0xbeaa0faa	-0.33215076
144	0xbb053bd9	-0.0020329861
145	0x3f102071	0.562995
146	0x3ed52c64	0.4163543
147	0xbe2bc20c	-0.16773242
148	0xbe5074f5	-0.20357116
149	0x3e3e1dca	0.18566051
150	0xbdc5f42a	-0.09665711
151	0x3cd19b9d	0.025586898
152	0x3f1b563e	0.6067847
153	0x3f18e250	0.59720325
154	0x3eeab090	0.45837831
155	0x3da5c395	0.08093945
156	0x3ea50da4	0.3223697
157	0x3f5a1e45	0.8520244
158	0x3f278ee1	0.6545239
159	0x3e542e79	0.20720853
160	0xbee4cffe	-0.44689935
161	0xbde5738f	-0.11203682
162	0xbd94690e	-0.072466
163	0x3e3fc9a1	0.18729259
164	0xbdd487a1	-0.10377432
165	0xbf0821ed	-0.53176767
166	0xbf097f27	-0.53709644
167	0x3cc5c6d9	0.02414267
168	0xbe04585f	-0.12924336
169	0xbe5f8990	-0.2182982
170	0xbe04971c	-0.12948269
171	0xbe8f9d63	-0.28049764
172	0x3e0a9042	0.13531592
173	0x3bea498b	0.0071498803
174	0xbe34053c	-0.17580122
175	0xbe0c58aa	-0.13705698
176	0xbe91ed70	-0.28501463
177	0xbeb6ee8e	-0.35728878
178	0xbea9a20c	-0.33131444
179	0xbeb35f5a	-0.35033685
180	0x3d99a817	0.07502764
181	0x3d92a4fb	0.07160374
182	0x3d137fd4	0.03601058
183	0x3e14fb79	0.14549054
184	0xbe067278	-0.13129604
185	0x3eaafbe2	0.33395296
186	0x3e26b766	0.16280898
187	0x3e7f0647	0.24904738
188	0x3edc2503	0.42996988
189	0x3d974ff9	0.073883004
190	0xbd6860cc	-0.056732938
191	0x3d29e5ed	0.04147904
192	0xbc8c45e8	-0.017123178
193	0xbb9fd9b6	-0.004878248
194	0x3e88e3f9	0.2673643
195	0x3dd13125	0.10214452
196	0x3dfadc83	0.122490905
197	0xbe5d9d2a	-0.21641985
198	0xbe566b86	-0.20939454
199	0x3e12daaa	0.14341226
200	0xbd32598c	-0.04354243
201	0xbe47771d	-0.19479032
202	0x3e298896	0.1655601
203	0x3e41ec1f	0.1893773
204	0xbd4d9681	-0.05019236
205	0xbe475ff6	-0.194702
206	0xbdbceae8	-0.09224492
207	0xbe4b22c4	-0.19837481
208	0xbe4380ce	-0.19092104
209	0xbd63c5a6	-0.055608414
210	0x3a1736e7	0.0005768374
211	0xbdc003a5	-0.09375695
212	0x3daa19fc	0.083057374
213	0x3e35db51	0.17759444
214	0xbe31f543	-0.17378716
215	0xbcd4ba38	-0.025967702
216	0xbdf69c23	-0.120414995
217	0x3d5150c3	0.05110241
218	0x3df5db99	0.120047756
219	0xbe39bb69	-0.18137898
220	0x3deb4487	0.1148768
221	0xbe17afd8	-0.14813173
222	0x3d88d90c	0.066820234
223	0xbd57cd60	-0.052686095
224	0x3def79cf	0.11693155
225	0xbd81d5d3	-0.06339612
226	0xbdbbe75f	-0.0917499
227	0xbd609e54	-0.054838493
228	0xbe4a467b	-0.19753449
229	0x3de8e79f	0.11372303
230	0xbd0c54a2	-0.0342604
231	0xbd2b5076	-0.04182478
232	0x3d6ae32f	0.057345565
233	0xbd6c1937	-0.057641234
234	0x3d709c5a	0.05874286
235	0xbd4ff3ca	-0.050769605
236	0xbde94e20	-0.11391854
237	0xbe37f668	-0.1796509
238	0x3d153c68	0.03643456
239	0xbdc58a8b	-0.096455656
240	0x3e4c82e2	0.19971803
241	0xbe14cc5f	-0.14531086
242	0x3e062eae	0.13103744
243	0x3d91b37d	0.07114313
244	0x3d1b7223	0.037950646
245	0xbdb75ea8	-0.08953601
246	0xbd84c42e	-0.06482731
247	0x3e23c111	0.15991618
248	0xbdd5259b	-0.10407563
249	0xbcb578d3	-0.02215234

bias f4 [10]
0	0x3e268898	0.16263044
1	0xbdb59631	-0.08866537
2	0xbedbc94c	-0.42927015
3	0xbe5854fd	-0.2112617
4	0x3ede2c45	0.4339315
5	0xbe7bfd65	-0.24608381
6	0xbefb15be	-0.49040025
7	0xbcc2889e	-0.023746785
8	0x3dbd1dc3	0.09234192
9	0xbe0c4b8e	-0.13700697

weight f4 [20, 10, 5, 5]
0	0x3d45d759	0.048301075
1	0xbbbf8adb	-0.0058454103
2	0x3ca0eafd	0.019643301
3	0x3d2291e7	0.039689925
4	0xbc1fc811	-0.009752289
5	0xbb93d40b	-0.0045113615
6	0x3d817b85	0.063223876
7	0xbd2697f1	-0.040672246
8	0xbaaee547	-0.0013343476
9	0x3d7f8f2c	0.0623924
10	0x3d61227f	0.05496454
11	0x3cb236cc	0.021754645
12	0xbc4eca7e	-0.01262152
13	0xbbaa60b6	-0.005199517
14	0x3c98f3af	0.018670885
15	0xbd3918f2	-0.045189805
16	0xbc68510f	-0.014179482
17	0x3c96c3a3	0.018403834
18	0x3c7b9149	0.015354463
19	0x3ccca944	0.024983056
20	0xbd6a58a6	-0.057213448
21	0x3d2cb38c	0.042163417
22	0x3aca6804	0.0015442376
23	0x3c986885	0.018604526
24	0x3d39cb79	0.045360062
25	0xbd0f5ea9	-0.035002384
26	0x3b049370	0.002022948
27	0xbc7151a0	-0.014728934
28	0xbb403def	-0.002933379
29	0xbd23fbe2	-0.040035136
30	0x3d729adb	0.059229713
31	0x3d6fac82	0.058514126
32	0xbcf37ab2	-0.029721592
33	0x3d1ff17c	0.039048657
34	0xbd57c3ee	-0.052677087
35	0xbc956b83	-0.018239742
36	0xbc95b9ca	-0.018277068
37	0xbb73b005	-0.0037183773
38	0xbc95ca40	-0.018284917
39	0xbd30ce32	-0.043165393
40	0xbcf80f5b	-0.03028076
41	0x3cfc91ce	0.030831244
42	0xbd2c15d1	-0.042012993
43	0x3d188eef	0.037245687
44	0xbd713806	-0.05889132
45	0x3d5230b2	0.05131597
46	0xbd5ca107	-0.053864505
47	0x3d723e6f	0.059141573
48	0x3d0dbfc3	0.034606706
49	0x3d0afa7d	0.03393029
50	0xbc67597c	-0.014120456
51	0x3b93e9a5	0.0045139366
52	0x3b66bafe	0.003520667
53	0x3d527fee	0.051391535
54	0x3cd1a75b	0.025592497
55	0xbbea8f4a	-0.0071581947
56	0xbd649741	-0.05580831
57	0xbd69084f	-0.05689269
58	0xbc9bed82	-0.019034151
59	0xbd7470c9	-0.059677873
60	0xb924bc94	-0.0001571051
61	0x3cb0c006	0.021575939
62	0x3c30cb7b	0.010790701
63	0x3c4e8c8f	0.012606754
64	0x3c008c54	0.007845957
65	0xbd094303	-0.033511173
66	0xbd0f1782	-0.03493453
67	0x3cf8bf3e	0.030364629
68	0x3abee816	0.0014565017
69	0xbc5ae144	-0.013359372
70	0x3d462d2b	0.04838292
71	0xbc1e1412	-0.00964834
72	0xbbe9d49d	-0.007135941
73	0x3cf5479c	0.029941373
74	0x3c2873b4	0.010281492
75	0x3cf01270	0.029305667
76	0xbba91997	-0.0051605213
77	0x3a04f7e5	0.00050723396
78	0xbc1a4793	-0.009416479
79	0xbba9176f	-0.005160264
80	0x3d3ad20f	0.045610484
81	0xbd2850a1	-0.04109252
82	0xbcc1bb81	-0.02364898
83	0x3cd38ecc	0.025824927
84	0xbd3633f2	-0.044483133
85	0x3c857da2	0.016295258
86	0x3c9cc199	0.019135283
87	0xbd584dc9	-0.052808557
88	0xbb301d07	-0.002687277
89	0x3d0c4bc4	0.034251943
90	0xbd0b4492	-0.03400094
91	0xbce0c961	-0.027439775
92	0x3d50df27	0.050994065
93	0xbd67880c	-0.05652623
94	0x39ad5f15	0.00033067973
95	0x3d01b215	0.031663973
96	0x3aa49a05	0.0012558108
97	0xbd6e3983	-0.058160316
98	0x3c873182	0.0165031
99	0xbce97314	-0.028497256
100	0xbcb3cc01	-0.021947863
101	0x3cfe5610	0.031046897
102	0x3d4b5177	0.049638238
103	0xbc663744	-0.014051262
104	0xbb94503d	-0.0045261667
105	0x3b5dfd58	0.0033872928
106	0xbd754ed2	-0.059889622
107	0xbc8cdcae	-0.017195072
108	0x3d36197d	0.0444579
109	0xbd1f1411	-0.038837496
110	0xbd777d85	-0.06042244
111	0xbd281abb	-0.041041117
112	0x3d418fec	0.047256395
113	0xbd0ac814	-0.033882216
114	0x3cb39d62	0.021925632
115	0xbb8b0672	-0.0042427117
116	0xbcf08cc5	-0.029364
117	0xbbe172d4	-0.0068801437
118	0xbd6631a6	-0.056199692
119	0x3d474092	0.048645563
120	0xbc92a2d4	-0.017899908
121	0x3d52c8dc	0.051461086
122	0x3d352d13	0.04423244
123	0x3cfd2af1	0.030904265
124	0xb9ee122d	-0.0004540844
125	0xbd529a6f	-0.05141681
126	0xbbd21d67	-0.0064121964
127	0xbc5e61d4	-0.013573129
128	0xbd011c24	-0.031520978
129	0xbb117e2d	-0.002220045
130	0x3cff5bba	0.031171668
131	0xbcf97b7a	-0.030454386
132	0xbd001e81	-0.03127909
133	0xbc35d48a	-0.011098037
134	0x3d4bcccf	0.049755868
135	0xbc3923f3	-0.011300075
136	0xbd284d4d	-0.041089345
137	0x3d2ddca5	0.04244675
138	0xbc19044b	-0.009339402
139	0xbcd992d5	-0.026559273
140	0x3d546f12	0.051863737
141	0x3caae194	0.020859517
142	0x3d18bd07	0.037289646
143	0xbd363bbf	-0.044490572
144	0x3c4444c7	0.011979288
145	0xbce0cff0	-0.027442902
146	0x3bb283da	0.005447847
147	0x3ccf4f3a	0.025306333
148	0xbcfb3631	-0.030665489
149	0x3d5e9707	0.05434325
150	0xbd0479d7	-0.032342758
151	0x3d0765cf	0.033056077
152	0x3d253a14	0.04033859
153	0xbd209172	-0.039201207
154	0xbd757f0d	-0.05993562
155	0xbd35261f	-0.04422581
156	0xbcdad669	-0.026713567
157	0xbcb88e90	-0.022528917
158	0x3c4337a9	0.011915126
159	0x3d6c108a	0.05763296
160	0xbc918d02	-0.017767433
161	0x3d50436d	0.050845552
162	0xbcfb3927	-0.0306669
163	0x3d535046	0.051590227
164	0xbd62935f	-0.055316325
165	0x3d699cf0	0.057034433
166	0x3c8c842d	0.01715287
167	0xbd1a4a26	-0.03766837
168	0x3c80d27b	0.015725365
169	0xbc6da855	-0.0145054655
170	0x3d457c80	0.048214436
171	0xbd316bf8	-0.043315858
172	0x3c2d3703	0.010572198
173	0xbcd7d14d	-0.02634492
174	0xbd2fddd9	-0.04293618
175	0x3cf75e39	0.030196296
176	0x3d67362b	0.056448143
177	0x3d77e2a5	0.06051888
178	0x3cc9d904	0.024639614
179	0x3c8f6422	0.017503802
180	0xbb6b1e51	-0.0035876224
181	0x3cec672a	0.028857786
182	0xbd253613	-0.040334772
183	0x3d38dd5e	0.045132987
184	0x3d4bc2c4	0.04974629
185	0xbcbfa423	-0.023393696
186	0x3b13b241	0.0022536668
187	0xbd417a39	-0.0472357
188	0xbd0bead1	-0.034159485
189	0xbd19c13f	-0.03753781
190	0xbd6bc8f1	-0.05756468
191	0xbd5ff896	-0.05468043
192	0x3d2aef7e	0.041732304
193	0xbcf2058a	-0.029543657
194	0x3d5f212d	0.054475
195	0x3cda4230	0.026642889
196	0xbc55a03e	-0.013038693
197	0x3af312a7	0.0018544988
198	0xbd368e0f	-0.04456907
199	0x3c37bbf8	0.011214249
200	0xbcc74c69	-0.024328427
201	0xbbb6375d	-0.005560799
202	0x3d37207e	0.04470872
203	0x3ce87968	0.028378204
204	0xbc9fded4	-0.019515432
205	0xbd4c172f	-0.049826797
206	0x3d5b65af	0.05356377
207	0xbd292fcd	-0.041305352
208	0x3d61d125	0.055131096
209	0x3d2d4452	0.042301483
210	0x3c1a39e3	0.009413215
211	0xbd086672	-0.033300824
212	0x3d0f0471	0.034916345
213	0xbc8abc75	-0.016935566
214	0x3d6f1719	0.058371637
215	0x3d0e3d8e	0.034726672
216	0xbac9deff	-0.0015401541
217	0xbb9c289e	-0.004765584
218	0x3ce25a37	0.027630908
219	0xbc6745c9	-0.014115759
220	0x3cade425	0.021226952
221	0xbc8cf9d6	-0.017208975
222	0x3d56c593	0.052434515
223	0x3ce28aff	0.02765417
224	0x3d25d3b3	0.040485095
225	0xbc86f52e	-0.016474333
226	0x3d816452	0.06317963
227	0x3d5b548e	0.053547435
228	0xbd6e12f2	-0.058123536
229	0xbd4d8fa8	-0.05018583
230	0xbcc52056	-0.02406327
231	0x3d1413d3	0.03615172
232	0xbc599327	-0.013279713
233	0xbaaada18	-0.0013034968
234	0xbca668a7	-0.020313574
235	0x3c403241	0.011730731
236	0xbd71daf5	-0.059046704
237	0xbd68883f	-0.05677056
238	0xbd601b3f	-0.054713484
239	0x3d2d3404	0.042285934
240	0x3d80e044	0.06292775
241	0x3d61618a	0.05502466
242	0xbc0aeb11	-0.008478896
243	0x3d70cc02	0.058788307
244	0x3ce6860f	0.028140096
245	0xbc3b945b	-0.011448945
246	0xbce1592d	-0.027508343
247	0xbd13db26	-0.036097668
248	0xbd4b0b52	-0.049571343
249	0x3d4983f5	0.04919811
250	0xbc1fbaf9	-0.009749168
251	0x3d2e863a	0.042608477
252	0x3bad3bc2	0.0052866647
253	0x3d253b17	0.040339556
254	0xbcd63591	-0.02614859
255	0xbb87a690	-0.004139729

bias f4 [20]
0	0x3c6e8d54	0.014560062
1	0xbe0b6e29	-0.13616242
2	0xbd8e1b55	-0.06938807
3	0x3daf637b	0.08563896
4	0xbd4dbb91	-0.050227705
5	0xbd4a8f58	-0.04945311
6	0xbceba40a	-0.028764743
7	0xbd5fc290	-0.05462891
8	0xbda11500	-0.078653336
9	0xbdfa7fc7	-0.12231403
10	0xbbf1f3c6	-0.0073837964
11	0x3ba6aa63	0.0050862296
12	0xbd59ec18	-0.053203672
13	0xbd102ee1	-0.035200957
14	0xbd6b6928	-0.05747333
15	0xbe01a64a	-0.1266109
16	0x3cc1db8d	0.02366426
17	0xbd538263	-0.05163802
18	0xbe0752e4	-0.13215214
19	0x3c90c1ba	0.017670501

weight f4 [50, 320]
0	0x3c2758bf	0.01021403
1	0x3c9be15b	0.019028356
2	0x3d294ef0	0.041335046
3	0x3d4425ca	0.0478876
4	0x3d0ccb6e	0.034373693
5	0x3d4f7585	0.050649185
6	0x3d4c839c	0.0499302
7	0xbc9daf0a	-0.019248504
8	0x3c5514e4	0.013005469
9	0x3d53cc0d	0.05170827
10	0x3d5df9d4	0.054193333
11	0x3cf07bd4	0.02935592
12	0x3cda5459	0.026651548
13	0x3c0ef98f	0.008726492
14	0x3ce3e8a0	0.027820885
15	0x3d215880	0.03939104
16	0x3d5afbe1	0.053462867
17	0xbcc420ed	-0.023941481
18	0xbd90c25f	-0.07068323
19	0x3c421540	0.011845887
20	0xbb29d374	-0.002591339
21	0x3d237669	0.039907847
22	0x3cfdb0b6	0.030968051
23	0x3c42e76a	0.011895994
24	0x3cb1d4cd	0.021707917
25	0x3d7c20ce	0.061554722
26	0x3cf7bace	0.030240443
27	0xbdba2fc7	-0.09091144
28	0xbc941188	-0.018074766
29	0xbd5e78e0	-0.054314494
30	0xbde39663	-0.11112668
31	0x3d90c378	0.07068533
32	0xbd71983f	-0.058983084
33	0xbd0ff1d6	-0.035142742
34	0xbd2e7e6c	-0.042601034
35	0xbc44126a	-0.011967281
36	0x3d601a1c	0.0547124
37	0x3c6814ae	0.014165087
38	0xbd4f9650	-0.05068046
39	0xbca4030f	-0.02002099
40	0xbc2a7c17	-0.010405562
41	0xbdc566d0	-0.096387506
42	0xbb809bcb	-0.003924822
43	0x3df1e7b5	0.11811773
44	0x3d8f6569	0.07001764
45	0x3d5dd668	0.05415955
46	0x3cea8ebc	0.028632514
47	0x3d05063e	0.032476656
48	0xbdae6a80	-0.08516407
49	0x3cd1bf38	0.025603876
50	0x3d89e467	0.067330174
51	0x3d52ee03	0.051496517
52	0xbce5ad22	-0.028036658
53	0xbd89c215	-0.06726471
54	0xbc08c57f	-0.008347868
55	0xbbd14fc5	-0.006387683
56	0x3d58035d	0.052737582
57	0xbd63927a	-0.055559613
58	0xbd372168	-0.044709593
59	0x3d25b303	0.040453922
60	0xbc6a977e	-0.014318345
61	0x3c2a0c6b	0.010378937
62	0x3de5ab8f	0.11214363
63	0x3d90f1f4	0.07077399
64	0x3bcd8c61	0.006272838
65	0xbcbca02b	-0.023025593
66	0x3b889cc6	0.0041690795
67	0xbbca7c31	-0.0061793556
68	0x3b67eefc	0.0035390249
69	0x39fd68ce	0.00048334006
70	0xbd607719	-0.05480108
71	0x3d125e56	0.035734497
72	0x3c0e042c	0.008667987
73	0xbd5a3896	-0.05327662
74	0xbb839139	-0.0040151146
75	0xbbcce29b	-0.0062525994
76	0xbc70b3e2	-0.014691325
77	0x3d4fadd0	0.05070287
78	0x3c908287	0.017640365
79	0xbd3fa9e6	-0.046792887
80	0xbcb15d50	-0.02165094
81	0x3cdacd02	0.026709083
82	0x3c8e9f7b	0.01741003
83	0x3cb344a6	0.02188332
84	0xbdafd5af	-0.08585679
85	0x3cb9a678	0.022662386
86	0xbc99833b	-0.018739333
87	0x3d496f3d	0.04917835
88	0x3d093ac7	0.03350332
89	0xbcf469c8	-0.029835597
90	0xbc591063	-0.013248536
91	0xbde49016	-0.11160295
92	0xbc07b30e	-0.008282436
93	0xbcbd1ae4	-0.023084112
94	0xbd86d9bc	-0.06584498
95	0x3d1669f6	0.036722146
96	0x3d0994e4	0.03358926
97	0x3d7c563b	0.061605673
98	0x3b2a8fc9	0.0026025644
99	0x3dc8245b	0.09772559
100	0x3c3f8c4c	0.011691164
101	0x3cb67d9d	0.022276694
102	0x3dc6a2e3	0.09699037
103	0x3ddaf8fa	0.1069202
104	0xbd812fcd	-0.063079454
105	0xbca4a94f	-0.020100264
106	0x3d1ae585	0.037816543
107	0xbcec05c1	-0.028811337
108	0xbd0d4949	-0.03449372
109	0x3bf8b9c3	0.007590504
110	0xbcf107ad	-0.029422605
111	0x3c377a40	0.01119858
112	0x3d5bfac3	0.053705942
113	0xbb85f35a	-0.0040878477
114	0xbd368a4f	-0.044565495
115	0x3cbcdf3e	0.023055669
116	0x3d0cf9cb	0.03441791
117	0xbc399b29	-0.011328497
118	0x3d4e9d4d	0.050442982
119	0xbd37a4f0	-0.04483503
120	0x3ab67acb	0.0013922093
121	0xbd3ad264	-0.0456108
122	0xbd1c3170	-0.038133085
123	0x3d20c37f	0.03924894
124	0xbcee78fc	-0.029110424
125	0x3ce1a89a	0.027546216
126	0xbc9aaf28	-0.01888235
127	0x3cebb241	0.028771522
128	0x3d627782	0.055289753
129	0x3d6ea50e	0.058262877
130	0x3c805125	0.015663693
131	0x3cc37275	0.023858288
132	0x3ce0ffb7	0.027465684
133	0x3d131602	0.03590966
134	0x3bea09e8	0.007142294
135	0x3c720bca	0.014773319
136	0xbd41bf8f	-0.047301825
137	0x3d7daf7d	0.061934937
138	0xbc2bbbcb	-0.010481785
139	0xbd97e411	-0.07416547
140	0xbd38b5e6	-0.045095347
141	0xbb8c44bc	-0.0042806547
142	0xbd08ddc9	-0.033414636
143	0xbcbc877d	-0.023013825
144	0x3cff3dd2	0.031157408
145	0x3c92e429	0.01793106
146	0xbdb5a022	-0.088684335
147	0xbd1cb296	-0.03825625
148	0xbd53c4ed	-0.051701475
149	0x3d84b1bf	0.06479215
150	0x3d51394f	0.051080044
151	0xbcd833b8	-0.026391849
152	0xbcaaf317	-0.020867867
153	0xbd6cd14f	-0.0578168
154	0xbcd66e4f	-0.026175646
155	0xbcdf102c	-0.027229391
156	0x3e22e2ef	0.15906881
157	0x3df10081	0.11767674
158	0xbcfa0586	-0.030520212
159	0x3d23269a	0.039831735
160	0x3ce9a283	0.028519874
161	0x3d7c3792	0.061576433
162	0xbbc09532	-0.0058771605
163	0x3d189c32	0.037258334
164	0x3c8a5836	0.016887765
165	0xbc8e7c30	-0.017393202
166	0x3d540305	0.051760692
167	0x3db9718f	0.09054863
168	0xbd387119	-0.045029733
169	0x3d8adc97	0.067803554
170	0xbbe98b7c	-0.0071272235
171	0xbcbd933b	-0.023141494
172	0xbd6a8db7	-0.057264056
173	0xbce81696	-0.028331082
174	0xbcaed665	-0.021342466
175	0x3d56a19e	0.052400224
176	0xbae7ad82	-0.0017675611
177	0xba6344cc	-0.00086696143
178	0x3a81cd8d	0.0009903178
179	0xbd83c419	-0.06433887
180	0xbca3b543	-0.019983893
181	0xbcee07a1	-0.029056372
182	0x3d283ac8	0.041071683
183	0x3dd20e85	0.10256676
184	0x3d4631f3	0.04838748
185	0x3dd9f3d4	0.1064221
186	0xbc843ba7	-0.016141726
187	0xbd7e9e46	-0.06216266
188	0xbcc76bde	-0.024343427
189	0x3d58041d	0.052738298
190	0xbc3ab2e2	-0.011395188
191	0xbca25c2a	-0.019819338
192	0xbbdc88dc	-0.006730182
193	0x3cebe16f	0.028794019
194	0xbc8da211	-0.017289193
195	0xbd007fa9	-0.031371746
196	0x3ae71531	0.0017630217
197	0x3d5e9882	0.05434466
198	0xbd2458ac	-0.040123627
199	0x39d07fd6	0.00039768097
200	0xbc26976f	-0.0101679405
201	0xbbb78052	-0.005600014
202	0x3c233a3e	0.0099626165
203	0xbc0a8680	-0.008454919
204	0xbcf2e9d1	-0.029652508
205	0x3d2faa58	0.04288706
206	0xbd37af7a	-0.044845082
207	0xbd38ce4b	-0.04511861
208	0x3db75a14	0.08952728
209	0x3c5f1ad9	0.013617241
210	0x3b854bd7	0.0040678787
211	0x3d65626d	0.05600207
212	0x3b53e715	0.003233378
213	0x3d24590d	0.040123988
214	0x3c060c40	0.008181632
215	0x3cda02f7	0.026612742
216	0xbc8d70fe	-0.017265793
217	0x3c999a53	0.018750345
218	0x3d253916	0.040337645
219	0xbdb72113	-0.08941855
220	0xbc07e651	-0.008294658
221	0xbdadd819	-0.08488483
222	0xbd957a2d	-0.07298694
223	0x3d51e0dd	0.051239837
224	0x3a242266	0.0006261229
225	0x3c18f581	0.009335876
226	0x3ca7d3ef	0.0204868
227	0x3d0552dc	0.032549724
228	0x3d0c4084	0.034241214
229	0x3d3358cd	0.04378586
230	0xbd30fdef	-0.04321092
231	0xbc21aa27	-0.009867228
232	0xbd1a61ef	-0.037691053
233	0x3d56a8f3	0.052407216
234	0x3be66c41	0.007031948
235	0x3cac83b6	0.021058898
236	0xbca83ea7	-0.020537687
237	0x3cd81a52	0.026379738
238	0x3cf6cb4a	0.030126233
239	0xbd5d1c20	-0.0539819
240	0xbca1ac97	-0.019735618
241	0x3c26e80f	0.010187163
242	0xbcb320ff	-0.02186632
243	0xbc3b8cfc	-0.0114471875
244	0x3da33bb1	0.079703696
245	0xbbe7f99a	-0.0070793154
246	0xbd0832a4	-0.03325142
247	0xbda05286	-0.0782824
248	0x3d88b687	0.06675439
249	0x3d0bc440	0.034122705
250	0xbd87656f	-0.06611144
251	0x3d8f99bb	0.07011744
252	0xbd098753	-0.03357632
253	0xbd391de2	-0.045194514
254	0xbbc1a435	-0.0059094676
255	0x3d86aee1	0.06576324

bias f4 [50]
0	0x3d08b6a4	0.033377305
1	0x3d7e3b5e	0.062068336
2	0x3ca14f09	0.019691007
3	0x3d1d1e69	0.03835908
4	0x3d8bbe7f	0.068234436
5	0x3d50d1b7	0.05098125
6	0x3a05874a	0.0005093707
7	0x3ddc3019	0.107513614
8	0xbc0a8992	-0.008455651
9	0x3de7da20	0.11320901
10	0x3d22a735	0.039710242
11	0x3ddab4bd	0.10679004
12	0xbbb59713	-0.005541691
13	0x3d881f40	0.066465855
14	0x3d20762e	0.039175205
15	0x3de648fa	0.11244388
16	0x3d50ef4a	0.051009454
17	0x3d7d4741	0.06183553
18	0x3dcc4a5f	0.09975123
19	0x3d9a7b03	0.07542994
20	0x3dc9a42c	0.098457664
21	0x3dd4e71b	0.10395642
22	0x3b53a459	0.0032294004
23	0x3e13203e	0.14367768
24	0x3dcba1c2	0.09942962
25	0xbd061c4a	-0.032741822
26	0x3d259da7	0.040433552
27	0x3dab7c3c	0.08373305
28	0x3c64fa63	0.0139757125
29	0x3e0726d6	0.13198408
30	0x3e15bfa2	0.14623883
31	0x3dee0109	0.11621291
32	0xbb4e0f64	-0.003144228
33	0x3d399207	0.04530528
34	0x3c8ec83d	0.017429465
35	0x3d772024	0.060333386
36	0xbbb08ded	-0.0053880126
37	0x3d9fea75	0.07808391
38	0x3e2586cf	0.16164707
39	0x3d6389b0	0.05555123
40	0x3d01e820	0.031715512
41	0x3da483de	0.08032964
42	0x3d95ffe7	0.073242
43	0x3e3d66de	0.18496272
44	0x3dd29deb	0.10284027
45	0x3dd59983	0.10429671
46	0x3d4b5a12	0.049646445
47	0x3d9db715	0.07700936
48	0x3de74fb3	0.11294498
49	0x3cec34fb	0.028833857

weight f4 [10, 50]
0	0x3e1fca77	0.15604578
1	0xbe8de030	-0.27710104
2	0x3e41c901	0.18924333
3	0xbe8faf8b	-0.28063616
4	0x3d45be20	0.04827702
5	0xbe1dcea1	-0.15410854
6	0x3e4388c1	0.19095136
7	0x3e43dda4	0.19127518
8	0x3e632e76	0.22185692
9	0xbe83ec4b	-0.25766215
10	0xbe2306f7	-0.15920626
11	0xbea0e787	-0.3142664
12	0x3e192abd	0.1495771
13	0x3e991fb1	0.2990699
14	0xbe95e07f	-0.2927284
15	0x3e8b5d84	0.27219784
16	0xbd793711	-0.06084353
17	0x3e82fa78	0.25581717
18	0x3e9a8390	0.301785
19	0xbd23ac91	-0.039959494
20	0x3b553cd4	0.0032537477
21	0x3e9e3ca3	0.30905637
22	0xbcb1ee30	-0.021720022
23	0xbd85ff6b	-0.06542858
24	0xbe64edf5	-0.22356398
25	0x3e32dba7	0.17466603
26	0xbe33a12a	-0.17541948
27	0xbe817230	-0.2528243
28	0x3e9943ff	0.2993469
29	0xbe4490b9	-0.19195832
30	0x3e90607f	0.2819862
31	0xbe8ef811	-0.27923635
32	0xbdda13b3	-0.106482886
33	0xbdb7fe7c	-0.08984086
34	0xbe148232	-0.1450279
35	0x3dfb0f88	0.12258822
36	0xbe0a09c4	-0.13480288
37	0xbea5f04d	-0.32409897
38	0xbe82d814	-0.2555548
39	0xbe79896a	-0.24368826
40	0xbe3f89ab	-0.1870486
41	0x3d7a29df	0.061075088
42	0xbe793841	-0.24337865
43	0xbea0fd84	-0.31443417
44	0xbea438e9	-0.3207467
45	0x3e882f06	0.26598376
46	0x3e9b09f0	0.3028102
47	0xbe34cb0a	-0.17655578
48	0x3e8dbbf6	0.27682465
49	0xbe0fd520	-0.14046144
50	0xbe88a905	-0.26691452
51	0x3e81282f	0.2522597
52	0xbde429f4	-0.111408144
53	0xbd9344a4	-0.071908265
54	0xbe9e5975	-0.30927625
55	0xbe2cab66	-0.16862258
56	0xbbd7e1fe	-0.0065882197
57	0xbe7c968e	-0.24666807
58	0xbe374f8e	-0.17901441
59	0x3e456866	0.19278106
60	0x3e0c631b	0.1370968
61	0x3ca738aa	0.020412762
62	0xbe86e6c4	-0.26347935
63	0xbe52222e	-0.20520851
64	0xbe4fa1d3	-0.20276575
65	0x3e6ffd87	0.23436557
66	0x3e8de34e	0.27712482
67	0xbea77936	-0.32709664
68	0x3d76e2f7	0.060275044
69	0xbec6ea2a	-0.38850528
70	0x3eac605c	0.33667266
71	0xbe52d9b3	-0.20590858
72	0xbe0020cd	-0.12512513
73	0x3e5cfb1e	0.21580169
74	0x3d439228	0.047746807
75	0x3cd33622	0.025782648
76	0xbe38b8c9	-0.1803924
77	0x3e3fe8f3	0.18741207
78	0xbde0796f	-0.109606616
79	0x3ea5d6a6	0.32390326
80	0xbe9f342f	-0.310945
81	0x3e8d8be1	0.27645782
82	0xbc166110	-0.009178415
83	0x3e6dee3f	0.23235415
84	0xbe586014	-0.21130401
85	0xbe88d66c	-0.2672609
86	0xbd9718b3	-0.07377758
87	0xbcb55ad5	-0.022138039
88	0x3eb820cd	0.35962525
89	0x3e9a3ec1	0.30126002
90	0x3e852b49	0.26009586
91	0xbe4d7a99	-0.20066299
92	0xbe9e9994	-0.30976546
93	0x3e5a6ff6	0.21331772
94	0x3dfd8079	0.1237802
95	0xbe85312d	-0.2601408
96	0x3e156353	0.1458867
97	0xbe29d76e	-0.16586086
98	0xbeada6bf	-0.3391628
99	0x3e7a3320	0.24433565
100	0xbb5bec53	-0.0033557608
101	0x3e2602fc	0.16212076
102	0x3de57f2c	0.11205897
103	0xbe1ded3d	-0.1542253
104	0x3e2a43f4	0.16627485
105	0x3e91c345	0.2846929
106	0xbda36873	-0.079789065
107	0x3dab9df9	0.0837974
108	0x3e242871	0.16031052
109	0x3e20bc52	0.15696838
110	0xbe6697ee	-0.22518894
111	0x3e943d51	0.2895303
112	0x3d41f661	0.047354106
113	0xbdf04021	-0.117309816
114	0x3dfb678e	0.12275611
115	0xbd97fbb4	-0.074210554
116	0x3e8d755c	0.276286
117	0x3e263ad3	0.16233377
118	0x3e856cdd	0.2605962
119	0xbe0788f2	-0.13235834
120	0xbe2b0f11	-0.16704966
121	0xbe666214	-0.22498351
122	0xbe3f31b1	-0.186713
123	0x3e5fcf7b	0.21856491
124	0x3e8d344c	0.27578962
125	0xbdc2665d	-0.094921805
126	0xbdcf4991	-0.101214536
127	0x3e22af1c	0.15887111
128	0x3e2d1cb3	0.16905479
129	0xbd0544d8	-0.032536358
130	0xbe1a349e	-0.15059134
131	0xbe57f255	-0.21088536
132	0x3e15eaee	0.146404
133	0x3e7d5e64	0.24743038
134	0x3e111538	0.1416825
135	0xbde3bf26	-0.11120443
136	0x3ea5702f	0.32312152
137	0xbe5f585d	-0.21811052
138	0xbe3c3652	-0.18380097
139	0xbbf5d51a	-0.0075022103
140	0xbe73124a	-0.23737445
141	0x3e50f6fc	0.20406717
142	0xbe87e018	-0.26538157
143	0xbe3419f1	-0.17588021
144	0x3e34cbba	0.1765584
145	0x3e13d651	0.14437224
146	0x3e87c2e0	0.26515865
147	0xbe9538ac	-0.291448
148	0x3d6d1fdf	0.057891723
149	0xbdb7a1d0	-0.0896641
150	0x3e422326	0.1895872
151	0xbdcb74de	-0.099344
152	0xbe425794	-0.18978721
153	0x3e82c333	0.2553955
154	0xbe73dff4	-0.238159
155	0xbe744cce	-0.23857424
156	0x3d923c52	0.071404114
157	0x3e1b60c7	0.15173636
158	0x3df4eabe	0.11958836
159	0xbdd99def	-0.106258266
160	0xbe8fbe5e	-0.28074926
161	0x3e93b65c	0.28850067
162	0x3e5e3be6	0.21702537
163	0x3ccc3d0f	0.024931459
164	0x3e0ad5cf	0.13558124
165	0x3ca2a846	0.01985563
166	0xbe637e38	-0.22216117
167	0xbe1ac333	-0.15113525
168	0xbe108de3	-0.14116625
169	0x3e8e79aa	0.27827197
170	0xbd5c576e	-0.053794317
171	0x3e21e4d2	0.15809944
172	0xbe5f807e	-0.2182636
173	0x3e779757	0.24178825
174	0x3e8f1d7e	0.27952188
175	0xbeb00484	-0.34378445
176	0x3e679b4a	0.22617832
177	0x3e58e5fc	0.21181482
178	0xbe18a69c	-0.14907306
179	0xbe4c6a7e	-0.19962499
180	0x39064898	0.00012806279
181	0xbe75c2ac	-0.24000043
182	0x3e9bbbe7	0.30416796
183	0xbd9d5ed9	-0.076841064
184	0x3dea6f34	0.114469916
185	0xbe9d40fe	-0.30713648
186	0x3ce163b1	0.027513357
187	0xbc3d154c	-0.011540722
188	0x3ec91116	0.39270848
189	0xbe88043b	-0.26565728
190	0x3e9070c0	0.2821102
191	0xbdb36880	-0.08760166
192	0xbe68455f	-0.22682713
193	0x3e7320ba	0.23742953
194	0x3d7e18cd	0.06203537
195	0xbe709bd3	-0.23496942
196	0xbd12068f	-0.035650786
197	0xbd4e048a	-0.050297298
198	0xbb2732fa	-0.0025512562
199	0x3d9eba97	0.07750433
200	0xbe9d1c27	-0.3068554
201	0x3d31e5cb	0.04343204
202	0xbe74935d	-0.2388434
203	0x3e892d19	0.2679222
204	0x3e6a3c6e	0.22874615
205	0x3eaa73f9	0.33291605
206	0xbdd59fae	-0.10430847
207	0xbec0758b	-0.37589678
208	0x3e2978cf	0.16549991
209	0x3e3253c0	0.1741476
210	0xbe1b9f79	-0.15197553
211	0xbe347364	-0.17622143
212	0xbd5723ac	-0.052524254
213	0xbe9286fb	-0.28618607
214	0x3ddcde9b	0.10784646
215	0xbdf13c30	-0.11779058
216	0xbe1e8b87	-0.15482913
217	0xbe754abe	-0.23954293
218	0x3d33ac06	0.043865226
219	0xbdde4cb9	-0.108544774
220	0xbe063e25	-0.13109644
221	0xbd9f1342	-0.07767345
222	0x3e98921b	0.2979897
223	0xbec37a5d	-0.38179293
224	0xbe8b7b87	-0.2724268
225	0x3e3453d9	0.1761011
226	0x3e8d1a12	0.27558953
227	0x3e3a096e	0.1816766
228	0xbe7d60c2	-0.24743941
229	0xbdd5dd4a	-0.10442598
230	0xbe935c01	-0.2878113
231	0x3d90a862	0.070633665
232	0xbe674aa6	-0.2258707
233	0xbe6426e6	-0.22280464
234	0x3db9f91c	0.09080717
235	0x3e99ebde	0.30062765
236	0x3e920ac0	0.28523827
237	0x3e6029bb	0.21890919
238	0xbe3dfe21	-0.18553974
239	0xbcf06083	-0.029342895
240	0xbd2bae14	-0.04191406
241	0x3e4d2aae	0.20035812
242	0x3e57c3ca	0.21070781
243	0xbe32f830	-0.17477489
244	0xbe47d237	-0.19513784
245	0x3e2ddde7	0.1697918
246	0xbd4e220f	-0.05032545
247	0x3e4e547c	0.20149416
248	0x3c8784c4	0.0165428
249	0x3ed6bb65	0.41939846
250	0x3e355589	0.1770841
251	0xbe7cc329	-0.24683823
252	0x3e5330b6	0.2062405
253	0x3dd8c83d	0.105850674
254	0xbd4e1138	-0.05030939
255	0xbe41c652	-0.1892331

bias f4 [10]
0	0xbc2b29e8	-0.010447003
1	0x3e396366	0.18104324
2	0xbdc05844	-0.09391835
3	0x3db47ede	0.088132605
4	0xbe0367d7	-0.1283258
5	0x3d5f49a4	0.05451359
6	0x3e32d509	0.17464079
7	0xbe690ca6	-0.22758731
8	0x3e370412	0.17872646
9	0x3da3d0e1	0.07998825

weight f4 [8, 1, 7, 7]
0	0x3d8d0d39	0.06887288
1	0xbdb3c969	-0.0877865
2	0x3d9628d1	0.07332004
3	0xbdd40247	-0.10351997
4	0x3e162ac3	0.1466475
5	0x3df4cb24	0.119528085
6	0x3dd7b94a	0.10533388
7	0xbdffd78d	-0.12492285
8	0x3e3e7fb6	0.18603405
9	0xbbf2cffc	-0.0074100476
10	0xbe9f434c	-0.3110603
11	0x3de6ab23	0.112631105
12	0x3d088f33	0.03333969
13	0xbdb95bc7	-0.09050708
14	0x3e67ebfd	0.22648616
15	0xbe1f6a31	-0.15567853
16	0x3d67fe16	0.0566388
17	0x3db9c508	0.09070784
18	0xbd926bb0	-0.07149446
19	0xbe92aa83	-0.28645715
20	0xbd2188fb	-0.039437275
21	0xbd50fd39	-0.051022742
22	0xbe13acac	-0.14421338
23	0xbc9e334d	-0.019311571
24	0x3e8a6ed1	0.2703767
25	0x3d99a0a8	0.07501346
26	0x3e48e869	0.19619907
27	0x3e5ecd0d	0.21757908
28	0x3e215ac5	0.15757282
29	0x3dd1df11	0.10247625
30	0xbdc3a7f2	-0.095535174
31	0x3e42cd30	0.19023585
32	0xbb363df0	-0.0027807914
33	0xbe1b71a9	-0.15180077
34	0xbd008852	-0.031380005
35	0xbe4bbed1	-0.1989701
36	0xbe4d223c	-0.2003259
37	0x3e13f58e	0.1444914
38	0xbd0feb27	-0.035136368
39	0xbe9d045d	-0.3066739
40	0x3e1af828	0.15133727
41	0xbd021282	-0.03175593
42	0xbe21fe40	-0.15819645
43	0x3d771b3f	0.06032872
44	0x3e53f253	0.20697908
45	0xbddf343f	-0.10898637
46	0xbd76af5e	-0.060225837
47	0x3b22705f	0.0024786217
48	0xb9c53b20	-0.0003761882
49	0x3b04a94a	0.0020242506
50	0xbde21576	-0.110392496
51	0xbe639b14	-0.22227126
52	0x3c7ffaa9	0.015623727
53	0xbe4ad2a0	-0.1980691
54	0xbd6f62b1	-0.05844373
55	0x3d44b4ee	0.04802411
56	0x3e082ab8	0.13297546
57	0x3e3b00d4	0.18262035
58	0x3e9847b3	0.29742202
59	0x3ecb94f8	0.39762092
60	0x3ea60307	0.32424185
61	0x3e14d344	0.14533716
62	0xbe6b9fbd	-0.23010154
63	0x3c8ef929	0.017452793
64	0xbe8fecff	-0.281105
65	0xbe458707	-0.1928979
66	0xbe3bc041	-0.18335058
67	0xbe1025c3	-0.14076905
68	0x3c61cd31	0.013781832
69	0x3da9ac7d	0.08284853
70	0xbe08ae9a	-0.13347855
71	0x3e687225	0.22699793
72	0xbe4c608a	-0.19958702
73	0xbe380b1a	-0.17972985
74	0xbda3b2f2	-0.079931155
75	0x3e0f1170	0.13971496
76	0x3e09994b	0.13437383
77	0x3e3181c5	0.1733466
78	0x3e685651	0.22689177
79	0x3d448033	0.047973823
80	0x3ea5a732	0.32354122
81	0x3dd4ab57	0.10384243
82	0x3d46c41b	0.048526864
83	0xbdbcea3a	-0.09224363
84	0xbe39d029	-0.18145813
85	0x3d6017f6	0.05471035
86	0xbe941116	-0.28919286
87	0x3e36dfd6	0.17858824
88	0xbe0239f7	-0.12717424
89	0xbe18d571	-0.14925171
90	0x3deb5942	0.11491634
91	0xbc3c9a5d	-0.011511412
92	0x3d7e816f	0.062135156
93	0x3e4dc211	0.20093562
94	0xbe167fe1	-0.1469722
95	0xbc17dc61	-0.009268851
96	0x3c9f3c42	0.019437913
97	0x3d17dc6c	0.037075445
98	0xbdf6e173	-0.1205472
99	0x3e1f8031	0.15576245
100	0xbd27528b	-0.040850203
101	0xbd971ecf	-0.07378923
102	0xbdc176af	-0.09446465
103	0xbd39cc97	-0.045361128
104	0xbc84993d	-0.016186351
105	0xbd6f0ad3	-0.058359932
106	0xbb91b231	-0.004446291
107	0x3de0fe12	0.1098596
108	0x3c8b2f9f	0.016990481
109	0xbd5eb052	-0.05436737
110	0xbe0b5874	-0.13607961
111	0x3dc0032a	0.093756035
112	0x3dba630d	0.09100924
113	0xbca1dc33	-0.01975832
114	0x3e9f5e02	0.3112641
115	0x3d85a25b	0.065251075
116	0xbd8bcd29	-0.068262406
117	0x3d8e5a19	0.069507785
118	0xbd89b584	-0.067240745
119	0xbdf9c18c	-0.12195119
120	0xbe2d7552	-0.16939285
121	0x3e3f3880	0.18673897
122	0x3e9e5bac	0.30929315
123	0xbe105c29	-0.14097656
124	0xbe3fb7c4	-0.18722445
125	0x3c350238	0.011047892
126	0xbdaf1839	-0.08549542
127	0xbde58611	-0.11207212
128	0x3d522b02	0.051310547
129	0x3e96e253	0.29469547
130	0xbd5294a6	-0.051411293
131	0x3c14fbab	0.009093205
132	0xbbafd7c9	-0.0053662998
133	0xbdd1303b	-0.10214277
134	0xbdb3661e	-0.08759712
135	0xbd8cd785	-0.068770446
136	0x3df56eb6	0.11984007
137	0x3e06408a	0.13110557
138	0xbd674b7b	-0.05646847
139	0xbdef73ff	-0.116920464
140	0x3d79d5c1	0.060994867
141	0xbbfb392f	-0.007666729
142	0xbbffdd5b	-0.00780837
143	0xbe200939	-0.15628518
144	0x3e2e19e5	0.17002065
145	0xbbc10dc0	-0.0058915317
146	0xbdb50938	-0.08839649
147	0x3d189f38	0.037261218
148	0x3d62cbd7	0.055370178
149	0x3d6ea711	0.058264796
150	0x3d6269bd	0.05527662
151	0xbe2af0d7	-0.16693436
152	0x3cdc93e8	0.026925996
153	0xbdf76add	-0.120809294
154	0x3dc79410	0.097450376
155	0xbddb40fd	-0.10705755
156	0x3dee1502	0.11625101
157	0xbe6ea48a	-0.23304954
158	0x3dbe249e	0.09284328
159	0xbc360491	-0.011109487
160	0x3cdf8d9b	0.027289202
161	0xbe837044	-0.2567159
162	0xbdc6708c	-0.09689435
163	0x3e6b2d35	0.22966464
164	0x3d53786f	0.051628526
165	0x3dbfe330	0.093695045
166	0xbe02f81b	-0.12789957
167	0xbd208cd8	-0.03919682
168	0xbe4c50aa	-0.19952646
169	0x3e9b2ba1	0.30306724
170	0x3e9795ef	0.29606578
171	0xbe8f40f0	-0.2797923
172	0xbce83407	-0.028345121
173	0x3e0e3b9e	0.1388993
174	0xbd7c92bf	-0.061663385
175	0x3e993a82	0.2992745
176	0x3ec25dff	0.37962338
177	0xbd19f0e1	-0.037583236
178	0xbdbf9d41	-0.09356166
179	0xbda4fd39	-0.08056111
180	0x3cf9d3d8	0.030496523
181	0xbd8748e6	-0.06605701
182	0xbce2f98d	-0.027706886
183	0x3e22ae99	0.15886916
184	0x3b8622c4	0.0040935
185	0x3ccae7b3	0.024768686
186	0x3d98b1b9	0.07455773
187	0x3bd3ed39	0.006467488
188	0x3d01fac4	0.03173329
189	0xbe637887	-0.22213946
190	0x3e699c59	0.22813548
191	0xbdc6d934	-0.09709397
192	0xbdbead1e	-0.09310363
193	0x3d54f235	0.0519888
194	0xbd59959c	-0.053121194
195	0xbda37196	-0.07980649
196	0xbe027c03	-0.12742619
197	0xbd20b605	-0.039236087
198	0x3d2d7ad5	0.04235347
199	0xbca4131f	-0.020028649
200	0xbd27948f	-0.04091316
201	0xbdd3dcb0	-0.10344827
202	0xbb5541c0	-0.003254041
203	0x3c867404	0.016412742
204	0x3d89ba80	0.06725025
205	0xbc87958b	-0.0165508
206	0xbd1bb3da	-0.038013317
207	0x3d55cb9f	0.05219614
208	0xbda0a6dc	-0.07844326
209	0x3c53750c	0.012906324
210	0x39b2f728	0.0003413495
211	0xbd1363d7	-0.035983887
212	0x3c86c1ec	0.016449891
213	0xbdd51fc1	-0.10406447
214	0xbdfa0540	-0.122080326
215	0x3c455ec0	0.012046516
216	0x3e459d0d	0.19298191
217	0x3c694564	0.014237735
218	0x3dad7c46	0.08470969
219	0xbdc0f2ca	-0.09421308
220	0xbdb11f9d	-0.08648608
221	0xbe336f63	-0.1752296
222	0x3e9f0471	0.31058076
223	0x3cbcec0a	0.023061771
224	0xbe1d3493	-0.15352087
225	0xbe30e37b	-0.17274277
226	0xbdbdcf99	-0.09268112
227	0xbe2614c6	-0.16218862
228	0x3eca9bf7	0.39572117
229	0x3dd589b3	0.10426655
230	0xbbc5d567	-0.0060374024
231	0x3c100ecd	0.008792591
232	0xbe2eba20	-0.17063189
233	0xbc80e4d6	-0.015734117
234	0x3ecfc4db	0.40579876
235	0x3e8b9f8d	0.27270165
236	0xbd877365	-0.06613807
237	0xbdaaaeb7	-0.083341055
238	0x3dc2d9d7	0.09514206
239	0x3de85f1b	0.11346265
240	0x3e6a061b	0.22853892
241	0x3e634bee	0.22196934
242	0xbe800b64	-0.2500869
243	0xbd818844	-0.06324819
244	0xbe3ab97a	-0.18234816
245	0x3dbac011	0.09118665
246	0x3daa73da	0.08322878
247	0xbdebe053	-0.11517396
248	0xbdb8c0fc	-0.09021184
249	0x3da06c7e	0.07833193
250	0xbdf94f43	-0.12173321
251	0xbe02b39e	-0.12763831
252	0xbd02a985	-0.031899948
253	0x3d16d82a	0.036827244
254	0xbc92ee4a	-0.01793589
255	0x3dbad92c	0.091234535

bias f4 [8]
0	0xbdc87ba9	-0.09789211
1	0xbea879cb	-0.3290542
2	0xbd2a621a	-0.041597463
3	0xbea0c98f	-0.31403777
4	0xbe538b9a	-0.20658723
5	0xbe097b23	-0.13425879
6	0xbdf75a05	-0.12077717
7	0xbc15863b	-0.009126241

weight f4 [10, 8, 5, 5]
0	0x3cb7f6a7	0.02245648
1	0x3ae58263	0.0017510172
2	0x3bbfd9e7	0.0058548334
3	0xbd6da2d1	-0.058016602
4	0x3d846995	0.06465451
5	0xbd739efb	-0.059477787
6	0x3bfadad3	0.0076554804
7	0x3d4ea787	0.050452735
8	0xbd3b88d0	-0.04578477
9	0xbc406a48	-0.011744089
10	0x3b584212	0.0032998365
11	0x3cdf58cd	0.027264023
12	0xbd51be8a	-0.051207103
13	0x3d027485	0.031849403
14	0xbd3eda87	-0.046595123
15	0x3cef3b5d	0.029203111
16	0x3bfc235d	0.0076946453
17	0x3c414838	0.011797003
18	0xbd1fe5c8	-0.039037496
19	0x3b5d7038	0.0033788811
20	0x3c0cd0f5	0.008594741
21	0xbd767069	-0.060165796
22	0xbd247528	-0.04015079
23	0xbd6fb3fc	-0.058521256
24	0xbc7d90b7	-0.015476397
25	0xbce6fc61	-0.028196516
26	0xbd1f52b1	-0.03889722
27	0x3d7f1bf5	0.06228252
28	0x3c1fc6f9	0.009752029
29	0xbcdcee39	-0.026969062
30	0xbd1018f8	-0.035180062
31	0x3d2e5bdd	0.042568076
32	0x3cca250e	0.024675872
33	0xbd2c31ae	-0.042039566
34	0xbd799aff	-0.06093883
35	0x3d2cd4a0	0.042194963
36	0x3d69691e	0.056985013
37	0x3c458a11	0.012056843
38	0xbccec5c8	-0.025240794
39	0xbd3f0871	-0.04663891
40	0x3d81837f	0.06323909
41	0xbd8e4234	-0.06946221
42	0x3d20d6a8	0.039267212
43	0xbd8fa95c	-0.070147246
44	0x3cf540f3	0.029938197
45	0x3d74975f	0.05971467
46	0xbd6aae66	-0.057295226
47	0xbc904540	-0.017611146
48	0xbd5d81e1	-0.05407894
49	0x3b5a7cae	0.0033338475
50	0x3d14aff7	0.036300626
51	0xba77d9d1	-0.00094547594
52	0xbcfe4e7e	-0.031043287
53	0xbc2e04b9	-0.010621243
54	0x3c73cf23	0.014880928
55	0xbd1b24db	-0.037876945
56	0xbd8a892d	-0.067644455
57	0x3d62e90a	0.055398025
58	0xbcfe567a	-0.031047095
59	0x3c19a2e2	0.009377213
60	0xbd0065ef	-0.03134721
61	0xbd01945e	-0.031635635
62	0xbc3a4e1f	-0.011371165
63	0x3d48c4e9	0.049015913
64	0xbd110e97	-0.035414305
65	0xbc0497ac	-0.008092802
66	0x3c67f495	0.014157434
67	0xbcd1b430	-0.025598615
68	0xbd2edaa0	-0.042688966
69	0x3d02fc03	0.03197862
70	0x3c85e5ad	0.01634487
71	0xbc00d6b2	-0.007863687
72	0x3d332b9f	0.043742772
73	0xbb75920a	-0.003747108
74	0x3cf7ef19	0.030265378
75	0x3cdd62ae	0.027024593
76	0xbcba191c	-0.022717051
77	0x3bc64ccb	0.006051635
78	0x3cee7307	0.029107584
79	0x3beef64c	0.0072925445
80	0xba9b60c9	-0.0011854406
81	0xbd58d1e8	-0.052934557
82	0x3d44808b	0.04797415
83	0x3c910556	0.01770274
84	0x3d4759b6	0.04866954
85	0xbc7798c2	-0.015112104
86	0x3d7d19d2	0.061792202
87	0xbd79a26b	-0.06094591
88	0xbd72339c	-0.05913125
89	0x3c1eba73	0.009688008
90	0xbcda3999	-0.026638793
91	0x3c2868d3	0.010278898
92	0xbd274916	-0.040841185
93	0xbbaac7a0	-0.0052117854
94	0xbc19468c	-0.009355199
95	0x3c8e4f38	0.017371759
96	0x3d4421fd	0.047883976
97	0x3c428c6e	0.011874301
98	0xbcdf07ef	-0.027225463
99	0x3d005ba7	0.031337406
100	0xbd8db289	-0.069188185
101	0xbd8499e3	-0.06474664
102	0xbd610cd7	-0.054943886
103	0x3d7b4e8c	0.061354205
104	0xbd8fb488	-0.070168555
105	0x3d166fbf	0.036727663
106	0xbc62e624	-0.013848815
107	0x3d0a1dbf	0.033719774
108	0x3ceef398	0.029168889
109	0xbd1af2f7	-0.037829366
110	0xbab252ef	-0.0013605038
111	0x3d1045e7	0.035222914
112	0x3bcc5533	0.0062357425
113	0xbd023fd4	-0.031799152
114	0x3d6347f4	0.05548854
115	0xbd219fa1	-0.039458875
116	0x3d0f3d2c	0.034970447
117	0xbc18b911	-0.009321467
118	0x3ca2caa6	0.01987202
119	0x3d729998	0.05922851
120	0x3d0124f5	0.031529386
121	0xbd483232	-0.048875995
122	0xbd7e070e	-0.062018447
123	0xbb3f94da	-0.002923301
124	0xbd3df0d8	-0.046372265
125	0x3c1c92c6	0.009556478
126	0x3cf7e9a1	0.03026277
127	0x3c72a4d3	0.014809805
128	0x3c45530a	0.012043724
129	0x3d8ecee7	0.06973057
130	0xbd478283	-0.04870845
131	0x3d82ddcd	0.063899614
132	0x3c3211f9	0.010868543
133	0xbd646f51	-0.055770222
134	0xbd872aaa	-0.065999344
135	0xbd784094	-0.06060846
136	0x3cb6767c	0.022273295
137	0x3cf7b909	0.030239599
138	0x3d4fd9b1	0.050744716
139	0x3d743d7d	0.059628952
140	0xbd885f86	-0.06658845
141	0xbcc96bd6	-0.024587553
142	0x3cb65e37	0.022261722
143	0x3c230450	0.009949759
144	0x3d8dbe0a	0.06921013
145	0x3d80d06d	0.06289754
146	0x3d0dc14c	0.03460817
147	0x3ca4d9f0	0.020123452
148	0x3c9f96fd	0.019481177
149	0x3ce5aa4e	0.02803531
150	0x3d61ad96	0.055097185
151	0x3d84da82	0.064869896
152	0x3d0894d3	0.033345055
153	0x3d371e17	0.04470643
154	0x3d3f3dc5	0.046689767
155	0x3d81bc10	0.06334698
156	0x3c310e0c	0.010806572
157	0x3d494702	0.049139984
158	0x3d2e6777	0.04257914
159	0x3c33d4f4	0.010976065
160	0x3d81b9b7	0.063342504
161	0x3d39e97b	0.04538868
162	0x3c68b862	0.014204117
163	0x3d4df681	0.050283913
164	0xbafea522	-0.0019427876
165	0x3d8ae0f8	0.06781191
166	0xbd082b6b	-0.03324453
167	0xbd436761	-0.04770601
168	0x3d284a07	0.041086223
169	0x3a57f196	0.0008237598
170	0xbd3b3160	-0.045701385
171	0x3c0c9368	0.008580066
172	0x3bf47205	0.0074598812
173	0xbcfd5c54	-0.030927815
174	0x3d5a2a65	0.053263087
175	0x3d86178e	0.065474615
176	0x3d3fa7e7	0.046790984
177	0x3d8a0c10	0.06740582
178	0x3d21cb8d	0.03950076
179	0x3bb03294	0.005377123
180	0x3d26a150	0.040681183
181	0x3d8daac0	0.069173336
182	0x3d79c97f	0.060983177
183	0xbb69843f	-0.0035631803
184	0x3d64aaad	0.05582683
185	0xbc89c9f0	-0.016819924
186	0x3d573c7c	0.052547917
187	0x3d3f927e	0.046770565
188	0x39801933	0.00024432837
189	0xbc9bcb88	-0.01901795
190	0x3d825bcd	0.06365166
191	0x3bed17dc	0.0072355103
192	0x3d4cafad	0.049972225
193	0xbd853baa	-0.06505521
194	0x3c6ed3ce	0.014576865
195	0xbd86d9b0	-0.06584489
196	0xbd716df1	-0.05894274
197	0x3d4f66eb	0.05063526
198	0x3d16870d	0.03674989
199	0xbd3c2256	-0.045931183
200	0xbd70a7c3	-0.05875374
201	0xbd8d5869	-0.069016285
202	0xbceb40ea	-0.028717477
203	0xbd0e3611	-0.03471953
204	0xbc118d49	-0.008883783
205	0xbc672115	-0.014107008
206	0xbc989cf0	-0.018629521
207	0x3d7b9ffb	0.061431866
208	0xbd4774e4	-0.04869546
209	0xbbbbf17f	-0.0057355757
210	0xbd06f02c	-0.03294389
211	0x3d6cfd2d	0.057858635
212	0x3c2f284a	0.010690758
213	0x3c12e96a	0.008966783
214	0x3b36da6f	0.0027901193
215	0xbcdd2a9e	-0.02699786
216	0x3b2de59a	0.0026534558
217	0xbc573978	-0.01313626
218	0xbd4a0cb2	-0.049328513
219	0xbb6f3240	-0.0036498457
220	0xbd17fac9	-0.0371044
221	0xbd32a7ae	-0.043616943
222	0xbd475895	-0.048668463
223	0x3cda4eea	0.026648957
224	0xbd6f5978	-0.058434933
225	0x3d1bf5ca	0.0380762
226	0xbc0627ca	-0.008188197
227	0xbccea588	-0.025225416
228	0x3d3d2f70	0.046187818
229	0x3c2aa6e5	0.010415767
230	0x3aec3d07	0.0018023559
231	0xbd38924e	-0.045061402
232	0xbcdcda59	-0.026959585
233	0xbd4d7f26	-0.050170086
234	0xbd3b0b18	-0.045664877
235	0xbd5cbc19	-0.05389032
236	0xbc1be307	-0.009514577
237	0x3d1893a3	0.037250172
238	0xbd8c0129	-0.06836159
239	0xbd2d2c75	-0.042278726
240	0x3c92b38e	0.017907884
241	0xbcefdb65	-0.02927942
242	0x3cccaeef	0.024985759
243	0x3ca9d4bc	0.020731322
244	0x3b680e3e	0.003540888
245	0xbc7621c5	-0.0150227
246	0xbd8f9590	-0.07010949
247	0x3d128b74	0.035777524
248	0x3d699dc9	0.05703524
249	0x3c224ae6	0.0099055525
250	0x3cfc144d	0.030771399
251	0xbd555514	-0.05208309
252	0x3d678d35	0.05653115
253	0x3d23f5af	0.040029224
254	0x3c89235b	0.016740492
255	0xbd42f998	-0.047601312

bias f4 [10]
0	0xbda09e41	-0.078426845
1	0xbd46ab7a	-0.048503377
2	0xbe17f06b	-0.14837806
3	0xbdaf20b8	-0.085511625
4	0xbe31db01	-0.173687
5	0xbd37b436	-0.044849597
6	0x3e3e128c	0.18561763
7	0xbd0f62ad	-0.035006214
8	0xbd3c5690	-0.04598099
9	0x3c118f61	0.008884282
